Model: "sequential"
_________________________________________________________________
Layer (type)                 Output Shape              Param #   
=================================================================
embedding (Embedding)        (None, 40, 200)           80787400  
_________________________________________________________________
masking (Masking)            (None, 40, 200)           0         
_________________________________________________________________
module_wrapper (ModuleWrappe (None, 128)               135680    
_________________________________________________________________
dense (Dense)                (None, 64)                8256      
_________________________________________________________________
dropout (Dropout)            (None, 64)                0         
_________________________________________________________________
dense_1 (Dense)              (None, 1)                 65        
_________________________________________________________________
activation (Activation)      (None, 1)                 0         
=================================================================
Total params: 80,931,401
Trainable params: 144,001
Non-trainable params: 80,787,400
_________________________________________________________________
