Model: "model"
_________________________________________________________________
Layer (type)                 Output Shape              Param #   
=================================================================
inputs (InputLayer)          [(None, 32)]              0         
_________________________________________________________________
dense (Dense)                (None, 32)                1056      
_________________________________________________________________
token_and_position_embedding (None, 32, 32)            33024     
_________________________________________________________________
masking (Masking)            (None, 32, 32)            0         
_________________________________________________________________
transformer_block (Transform (None, 32, 32)            10656     
_________________________________________________________________
global_average_pooling1d (Gl (None, 32)                0         
_________________________________________________________________
dropout_2 (Dropout)          (None, 32)                0         
_________________________________________________________________
dense_3 (Dense)              (None, 20)                660       
_________________________________________________________________
dropout_3 (Dropout)          (None, 20)                0         
_________________________________________________________________
dense_4 (Dense)              (None, 1)                 21        
=================================================================
Total params: 45,417
Trainable params: 45,417
Non-trainable params: 0
_________________________________________________________________
