Model: "sequential_1"
_________________________________________________________________
Layer (type)                 Output Shape              Param #   
=================================================================
dense_3 (Dense)              (None, 32)                1056      
_________________________________________________________________
embedding_1 (Embedding)      (None, 32, 200)           27931000  
_________________________________________________________________
masking_1 (Masking)          (None, 32, 200)           0         
_________________________________________________________________
lstm_1 (LSTM)                (None, 64)                67840     
_________________________________________________________________
dense_4 (Dense)              (None, 64)                4160      
_________________________________________________________________
dropout_1 (Dropout)          (None, 64)                0         
_________________________________________________________________
dense_5 (Dense)              (None, 1)                 65        
_________________________________________________________________
activation_1 (Activation)    (None, 1)                 0         
=================================================================
Total params: 28,004,121
Trainable params: 73,121
Non-trainable params: 27,931,000
_________________________________________________________________
