Model: "sequential_2"
_________________________________________________________________
Layer (type)                 Output Shape              Param #   
=================================================================
embedding_2 (Embedding)      (None, 32, 200)           27931000  
_________________________________________________________________
masking_2 (Masking)          (None, 32, 200)           0         
_________________________________________________________________
lstm_2 (LSTM)                (None, 64)                67840     
_________________________________________________________________
dense_4 (Dense)              (None, 64)                4160      
_________________________________________________________________
dropout_2 (Dropout)          (None, 64)                0         
_________________________________________________________________
dense_5 (Dense)              (None, 1)                 65        
_________________________________________________________________
activation_2 (Activation)    (None, 1)                 0         
=================================================================
Total params: 28,003,065
Trainable params: 72,065
Non-trainable params: 27,931,000
_________________________________________________________________
