Model: "sequential"
_________________________________________________________________
Layer (type)                 Output Shape              Param #   
=================================================================
embedding (Embedding)        (None, 32, 200)           90382000  
_________________________________________________________________
masking (Masking)            (None, 32, 200)           0         
_________________________________________________________________
lstm (LSTM)                  (None, 32, 64)            67840     
_________________________________________________________________
lstm_1 (LSTM)                (None, 32, 64)            33024     
_________________________________________________________________
lstm_2 (LSTM)                (None, 64)                33024     
_________________________________________________________________
dropout (Dropout)            (None, 64)                0         
_________________________________________________________________
dense (Dense)                (None, 1)                 65        
_________________________________________________________________
activation (Activation)      (None, 1)                 0         
=================================================================
Total params: 90,515,953
Trainable params: 133,953
Non-trainable params: 90,382,000
_________________________________________________________________
