Model: "sequential_1"
_________________________________________________________________
Layer (type)                 Output Shape              Param #   
=================================================================
embedding_1 (Embedding)      (None, 32, 200)           21980800  
_________________________________________________________________
masking_1 (Masking)          (None, 32, 200)           0         
_________________________________________________________________
lstm_1 (LSTM)                (None, 64)                67840     
_________________________________________________________________
dense_2 (Dense)              (None, 64)                4160      
_________________________________________________________________
dropout_1 (Dropout)          (None, 64)                0         
_________________________________________________________________
dense_3 (Dense)              (None, 1)                 65        
_________________________________________________________________
activation_1 (Activation)    (None, 1)                 0         
=================================================================
Total params: 22,052,865
Trainable params: 72,065
Non-trainable params: 21,980,800
_________________________________________________________________
