Model: "sequential_1"
_________________________________________________________________
Layer (type)                 Output Shape              Param #   
=================================================================
embedding_1 (Embedding)      (None, 32, 200)           27931000  
_________________________________________________________________
dropout_2 (Dropout)          (None, 32, 200)           0         
_________________________________________________________________
conv1d (Conv1D)              (None, 30, 600)           360600    
_________________________________________________________________
conv1d_1 (Conv1D)            (None, 28, 300)           540300    
_________________________________________________________________
conv1d_2 (Conv1D)            (None, 26, 150)           135150    
_________________________________________________________________
conv1d_3 (Conv1D)            (None, 24, 75)            33825     
_________________________________________________________________
flatten_1 (Flatten)          (None, 1800)              0         
_________________________________________________________________
dense_2 (Dense)              (None, 600)               1080600   
_________________________________________________________________
dropout_3 (Dropout)          (None, 600)               0         
_________________________________________________________________
activation_1 (Activation)    (None, 600)               0         
_________________________________________________________________
dense_3 (Dense)              (None, 1)                 601       
_________________________________________________________________
activation_2 (Activation)    (None, 1)                 0         
=================================================================
Total params: 30,082,076
Trainable params: 2,151,076
Non-trainable params: 27,931,000
_________________________________________________________________
