Model: "sequential"
_________________________________________________________________
Layer (type)                 Output Shape              Param #   
=================================================================
embedding (Embedding)        (None, 32, 200)           27931000  
_________________________________________________________________
gru (GRU)                    (None, 64)                50880     
_________________________________________________________________
dropout (Dropout)            (None, 64)                0         
_________________________________________________________________
flatten (Flatten)            (None, 64)                0         
_________________________________________________________________
dense (Dense)                (None, 64)                4160      
_________________________________________________________________
dropout_1 (Dropout)          (None, 64)                0         
_________________________________________________________________
dense_1 (Dense)              (None, 1)                 65        
_________________________________________________________________
activation (Activation)      (None, 1)                 0         
=================================================================
Total params: 27,986,105
Trainable params: 55,105
Non-trainable params: 27,931,000
_________________________________________________________________
