Model: "sequential"
_________________________________________________________________
Layer (type)                 Output Shape              Param #   
=================================================================
token_and_position_embedding (None, 32, 64)            17991936  
_________________________________________________________________
masking (Masking)            (None, 32, 64)            0         
_________________________________________________________________
transformer_block (Transform (None, 32, 64)            41792     
_________________________________________________________________
global_average_pooling1d (Gl (None, 64)                0         
_________________________________________________________________
dropout_2 (Dropout)          (None, 64)                0         
_________________________________________________________________
dense_2 (Dense)              (None, 20)                1300      
_________________________________________________________________
dropout_3 (Dropout)          (None, 20)                0         
_________________________________________________________________
dense_3 (Dense)              (None, 1)                 21        
_________________________________________________________________
activation (Activation)      (None, 1)                 0         
=================================================================
Total params: 18,035,049
Trainable params: 18,035,049
Non-trainable params: 0
_________________________________________________________________
