Model: "sequential_3"
_________________________________________________________________
Layer (type)                 Output Shape              Param #   
=================================================================
embedding_3 (Embedding)      (None, 128, 200)          21938800  
_________________________________________________________________
masking_3 (Masking)          (None, 128, 200)          0         
_________________________________________________________________
lstm_3 (LSTM)                (None, 64)                67840     
_________________________________________________________________
dense_6 (Dense)              (None, 64)                4160      
_________________________________________________________________
dropout_3 (Dropout)          (None, 64)                0         
_________________________________________________________________
dense_7 (Dense)              (None, 1)                 65        
_________________________________________________________________
activation_3 (Activation)    (None, 1)                 0         
=================================================================
Total params: 22,010,865
Trainable params: 72,065
Non-trainable params: 21,938,800
_________________________________________________________________
