Model: "sequential"
_________________________________________________________________
Layer (type)                 Output Shape              Param #   
=================================================================
embedding (Embedding)        (None, 32, 200)           66748400  
_________________________________________________________________
masking (Masking)            (None, 32, 200)           0         
_________________________________________________________________
lstm (LSTM)                  (None, 64)                67840     
_________________________________________________________________
dense (Dense)                (None, 64)                4160      
_________________________________________________________________
dropout (Dropout)            (None, 64)                0         
_________________________________________________________________
dense_1 (Dense)              (None, 1)                 65        
_________________________________________________________________
activation (Activation)      (None, 1)                 0         
=================================================================
Total params: 66,820,465
Trainable params: 72,065
Non-trainable params: 66,748,400
_________________________________________________________________
