Model: "sequential_2"
_________________________________________________________________
Layer (type)                 Output Shape              Param #   
=================================================================
token_and_position_embedding (None, 32, 64)            66048     
_________________________________________________________________
masking (Masking)            (None, 32, 64)            0         
_________________________________________________________________
transformer_block (Transform (None, 32, 64)            41792     
_________________________________________________________________
global_average_pooling1d (Gl (None, 64)                0         
_________________________________________________________________
dropout_6 (Dropout)          (None, 64)                0         
_________________________________________________________________
dense_6 (Dense)              (None, 20)                1300      
_________________________________________________________________
dropout_7 (Dropout)          (None, 20)                0         
_________________________________________________________________
dense_7 (Dense)              (None, 1)                 21        
_________________________________________________________________
activation_3 (Activation)    (None, 1)                 0         
=================================================================
Total params: 109,161
Trainable params: 109,161
Non-trainable params: 0
_________________________________________________________________
