Model: "sequential"
_________________________________________________________________
Layer (type)                 Output Shape              Param #   
=================================================================
dense (Dense)                (None, 32)                1056      
_________________________________________________________________
embedding (Embedding)        (None, 32, 200)           27931000  
_________________________________________________________________
masking (Masking)            (None, 32, 200)           0         
_________________________________________________________________
lstm (LSTM)                  (None, 64)                67840     
_________________________________________________________________
dense_1 (Dense)              (None, 64)                4160      
_________________________________________________________________
dropout (Dropout)            (None, 64)                0         
_________________________________________________________________
dense_2 (Dense)              (None, 1)                 65        
_________________________________________________________________
activation (Activation)      (None, 1)                 0         
=================================================================
Total params: 28,004,121
Trainable params: 73,121
Non-trainable params: 27,931,000
_________________________________________________________________
