Model: "sequential"
_________________________________________________________________
Layer (type)                 Output Shape              Param #   
=================================================================
token_and_position_embedding (None, 32, 200)           90388400  
_________________________________________________________________
masking (Masking)            (None, 32, 200)           0         
_________________________________________________________________
transformer_block (Transform (None, 32, 200)           348064    
_________________________________________________________________
global_average_pooling1d (Gl (None, 200)               0         
_________________________________________________________________
dropout_2 (Dropout)          (None, 200)               0         
_________________________________________________________________
dense_2 (Dense)              (None, 20)                4020      
_________________________________________________________________
dropout_3 (Dropout)          (None, 20)                0         
_________________________________________________________________
dense_3 (Dense)              (None, 1)                 21        
_________________________________________________________________
activation (Activation)      (None, 1)                 0         
=================================================================
Total params: 90,740,505
Trainable params: 358,505
Non-trainable params: 90,382,000
_________________________________________________________________
